CameraParams_inna_kamera_18-07_13-57.npz (npz, 3300 bytes, 7 tensors)

cameraMatrix f8 [3, 3]
0	0x4087d24dfdf95415	762.2880820730958
1	0x0000000000000000	0.0
2	0x407228131d4e0d15	290.5046666191932
3	0x0000000000000000	0.0
4	0x4087d508f203b706	762.6293678560476
5	0x40719af0be829443	281.68377543456535
6	0x0000000000000000	0.0
7	0x0000000000000000	0.0
8	0x3ff0000000000000	1.0

dist f8 [1, 5]
0	0xbfc6313c10b09719	-0.1733775216572944
1	0x3fc9624649330bda	0.1983116013926452
2	0x3f60246c77fefd3a	0.0019704931764576135
3	0xbf3be474dc74369c	-0.00042560437255265995
4	0xbfe4144b444b015a	-0.6274772962424706

rvecs f8 [28, 3, 1]
0	0x3fb55de7f3260c91	0.08346414266820747
1	0x3fa8fbce3310e507	0.04879612325061982
2	0x400919e59ef262b0	3.137644998332995
3	0xbfb34554aa2fdece	-0.07527665286022087
4	0xbfa9789554509a2f	-0.04974810270532647
5	0xc009170e396cefa7	-3.1362575994844124
6	0x3fb4f737f7d19dcc	0.08189725685371413
7	0x3fbb22b553ed801b	0.10599835680977814
8	0x400901f2f0d06876	3.1259516538239565
9	0xbf9ff8c1a615341e	-0.03122236801327826
10	0x3fc6d610f36f2977	0.17840778242527808
11	0x40090948d8a68b10	3.129533474524017
12	0xbfbcc14321b54f3e	-0.11232394764857376
13	0x3fd94aae7715601e	0.3951831973004135
14	0x40088eed533f7afa	3.0697885993716882
15	0xbfb93e07f5ff3d40	-0.09860276943003488
16	0xbfd15e1864ee0fa6	-0.27136812073171723
17	0xc008e36618188217	-3.1110345728377626
18	0xbfc14fa15702d275	-0.13524262188515804
19	0x3fd8e812f7f7aeb6	0.3891646787221633
20	0x4008af51a16b4e4f	3.0856049166557464
21	0xbfc8e96f95aa21cc	-0.19462389762726529
22	0x3fd3c60e503465df	0.30896337349403596
23	0xc008e904f8a5b7ba	-3.1137790132115386
24	0xbfe3c45005710e34	-0.6177139383584689
25	0x3fd425436f9111cf	0.3147743787306156
26	0xc00851d95ceaee94	-3.0399653681941547
27	0xbfbc0830bf5cf98b	-0.10949997589066222
28	0xbfc5ab569151f406	-0.16929132552823506
29	0xc008f483f00018b2	-3.1193922758130492
30	0x3fb81b15a6ed0011	0.09416327786766511
31	0xbfc93d0c4414db9e	-0.1971755344800074
32	0xc009073819d380cf	-3.1285249726935045
33	0x3fc073d94873e24c	0.12853542363861192
34	0x3fb5ff73027c4f5a	0.08592909632380721
35	0x4008f203427434fd	3.1181702796662862
36	0x3fb0fdbc86a5b660	0.06637171065605108
37	0xbfd58b025d6e2ce9	-0.3366094505697235
38	0x400875fed1393c8e	3.0576149316398817
39	0x3fcddde4c69ab30c	0.23333415696597404
40	0x3fa6320ab4700174	0.04335053875547859
41	0xc004d447b0952983	-2.603652362396305
42	0x3fc7604715431294	0.18262566126044943
43	0xbfd38173672b3cee	-0.3047760493763708
44	0xc008a0cdac526f0a	-3.078517290368727
45	0xbfa022e31481d257	-0.03151616692858699
46	0x3fda8786627b3455	0.414521785901177
47	0x4006e9c8c1442218	2.864152440921554
48	0x3fd5f0b46c993f35	0.3428164539845853
49	0xbfe147f8d7f6f872	-0.5400356500683883
50	0xc007e38bae1ed46f	-2.9861062625082506
51	0x3fcba05345792d60	0.21583023922208167
52	0xbfc24306dc9f8e00	-0.1426704957258238
53	0xc0090bfd449e7139	-3.1308541642048593
54	0x3fc79691f2f8b950	0.1842825352081925
55	0x3fd381df3faf37ba	0.30480176181015006
56	0xc008cb0d72352f8e	-3.099146740196324
57	0x3fce11b9b7b18137	0.23491593808558672
58	0xbfbad77711a264b6	-0.10485023670698265
59	0xc0087a8159c2c8ef	-3.0598170292442926
60	0xbfd0060da6c13c10	-0.25036946568155916
61	0x3fe08a7cff741dbf	0.5169053067519868
62	0x40089927c117d09d	3.0747828565018396
63	0x3fb18d945391a724	0.06856658020265322
64	0xbfc1395cd8e82169	-0.13456307021284467
65	0xc0090dc052a3d973	-3.1317144829037544
66	0xbf836c434e74e522	-0.009483838874631948
67	0xbfb20efcd5aebd62	-0.0705411931692104
68	0xc00915ba3cd7c28b	-3.1356091264099795
69	0xbf93f78930e2468f	-0.019498962029109775
70	0xbfba914910d7788e	-0.10377937947439106
71	0xc009145c7e898218	-3.1349420438493887
72	0xbf293ef944d4da5b	-0.00019261162598534467
73	0x3fca695dcb3a8c13	0.20634052680279122
74	0x4008f9310c9fedd3	3.1216755853945215
75	0x3f9c78bc95bb6332	0.0278043238057279
76	0x3fd130f34768de2a	0.2686126897201314
77	0x4008f06815e0e6fc	3.117386027265523
78	0x3f7163d3f8949053	0.004245594035897043
79	0x3fca1cf6a2866b2e	0.20400889335436417
80	0x4009150f871199b5	3.1352835228201124
81	0xbf541e858f31652a	-0.0012279800692083878
82	0x3fcd28c41851a36c	0.22780657947012217
83	0x400912460a63bb07	3.1339226543126446

tvecs f8 [28, 3, 1]
0	0x3fc94a5fa975f961	0.19758220457510858
1	0x3fb475e6d30bab4e	0.07992403652648969
2	0x3fe46b3cd3072346	0.6380905267370529
3	0x3fcb66510bf20e5d	0.21405995448377527
4	0x3fb930e70b3e0956	0.09840244316550203
5	0x3fe3fe2e6df26fdd	0.6247779986765597
6	0x3faaca773249fd35	0.05232594002608907
7	0x3fc03f3832fb82cf	0.12692930688265
8	0x3fe61116dc5b2fd1	0.6895860961753845
9	0x3fc183d6dbc0bd6b	0.13683591585275265
10	0x3fb21af8fcb2afdc	0.07072406930336633
11	0x3fe70d9458a1ee72	0.7204076510528934
12	0x3fcd7d8091e572e7	0.23039252399293916
13	0x3f54f53d833c153b	0.001279172964985988
14	0x3fe84850c86a8415	0.7588275827766916
15	0x3fd04e71c12a9156	0.25478786338705584
16	0x3fb274020227f36b	0.07208263924253593
17	0x3fe474f1c36f51c4	0.6392754380308863
18	0x3fc513fd10378030	0.1646725014861672
19	0x3fbc794697de6c8d	0.11122552116141744
20	0x3fe5915472d2d14f	0.6739904635092361
21	0x3fc89a1c2cd896e8	0.19220306577442803
22	0x3fb92ba231429218	0.09832204535138833
23	0x3fe5a7f14aff7dec	0.6767507996373161
24	0x3fca5688ed3e1e81	0.20576583465684808
25	0x3fbc3cfbc6eb98db	0.11030553442433037
26	0x3fe3e75bdfc71237	0.621992051187198
27	0x3fd0e7e380070393	0.26415336134601225
28	0x3fb82f6773801e8c	0.09447332925639723
29	0x3fe58d1ec62769ea	0.6734765882677582
30	0x3fc3f64b39262769	0.1559537915275613
31	0x3fc1f8968d4bf94a	0.14039880656486964
32	0x3fe6b6298169c432	0.7097365882492623
33	0x3fcdb3f42f5b9942	0.2320542556037229
34	0x3fabfda102bcce27	0.054669410309000015
35	0x3fe5541511f1a143	0.6665139532533789
36	0x3fc2186eb15a18ab	0.14137061748278276
37	0x3fbfa2814cd507d8	0.12357338071618018
38	0x3fe48ade6dbb4ae5	0.6419517653651751
39	0x3fb2c808b921503e	0.07336477775362568
40	0x3fc57f89eb3ead0a	0.16795467363895283
41	0x3fe7a0bcdf6cf6b3	0.7383713115484255
42	0x3fc57d7f8da15329	0.16789240279708764
43	0x3fbb88ed8375bc81	0.10755810222120667
44	0x3fe454e6b7a2545b	0.6353639208415517
45	0x3fce19509b00b9f1	0.2351475483751098
46	0x3fabc0ad4fe542b7	0.05420438385283915
47	0x3fe4c426baa6f05a	0.6489442487286496
48	0x3fbe9d6d58f940a6	0.11958964750488352
49	0x3fb4695882a45eb9	0.07973244847778006
50	0x3fe55969e5d50d4c	0.6671647538100074
51	0x3fc057e2f649ac2f	0.12768208528299982
52	0x3fc1484de0792bfc	0.135019049268834
53	0x3fe48ecb55dd3744	0.6424309422525103
54	0x3fbc649afd4cac44	0.11091011699743186
55	0x3fb813f70c3544c5	0.09405464218186228
56	0x3fe6afe55fba3ae2	0.7089716787030194
57	0x3fb4ad636f350738	0.08077069726007557
58	0x3fc1fc9650ed1b52	0.1405208487651302
59	0x3fe9b981b33b1c5d	0.8038948536494775
60	0x3fc2d2c82c764845	0.14705755396841105
61	0x3fb9b9c2a5aafb3c	0.10049072785021179
62	0x3fe0a733d56a5bf6	0.5204104583998503
63	0x3fc4d2a9e9b1f308	0.162678946598952
64	0x3fc18238fd202e1e	0.13678657874730588
65	0x3fe59e352adafc56	0.6755624615688116
66	0x3fc8b6811061a1c3	0.193069584845274
67	0x3fbfa42a77016bb8	0.12359872250946935
68	0x3fe3d14ad9d8a072	0.6192983870323714
69	0x3fca9eaea3c94f03	0.20796759602909995
70	0x3fba4bb7c76a4705	0.10271786325963823
71	0x3fe3d8d560456246	0.6202189331334658
72	0x3fcd11c72fb1ced1	0.22710504368625675
73	0x3fb2b6ae440d7fad	0.07309998666232671
74	0x3fe483f73a0b9209	0.6411090978331809
75	0x3fcf1c548ee85dfc	0.2430520723143984
76	0x3fb66b47b42243fa	0.08757446430014673
77	0x3fe5045f7ac6efc5	0.6567838094701918
78	0x3fc91c2cd41f747c	0.1961723361736495
79	0x3fb5a25f98a22c7f	0.08450887180713272
80	0x3fe4dc6ac0ce8dcd	0.6519063726195157
81	0x3fc9ebb3261a2deb	0.2025054870649535
82	0x3fb3d0b8a0908313	0.07740358276397456
83	0x3fe57f7c2dd75e50	0.6718121428811603

rvec_for_pose f8 [3, 1]
0	0x3fb55de7f3260c91	0.08346414266820747
1	0x3fa8fbce3310e507	0.04879612325061982
2	0x400919e59ef262b0	3.137644998332995

tvec_for_pose f8 [3, 1]
0	0x3fc94a5fa975f961	0.19758220457510858
1	0x3fb475e6d30bab4e	0.07992403652648969
2	0x3fe46b3cd3072346	0.6380905267370529

first_corner_coords f4 [2]
0	0x44029a81	522.4141
1	0x43bbd19f	375.63766
