CameraParams_inna_kamera_17-07_16-34.npz (npz, 2388 bytes, 7 tensors)

cameraMatrix f8 [3, 3]
00000000: 380c cbed aee2 8740 0000 0000 0000 0000
00000010: baa5 fc8a 7416 7240 0000 0000 0000 0000
00000020: d54e 1453 b4e8 8740 9eec 78cd e594 7140
00000030: 0000 0000 0000 0000 0000 0000 0000 0000
00000040: 0000 0000 0000 f03f
764.3354144919495 0.0 289.40345286074046 0.0 765.0880490862424 281.30610415683793 0.0 0.0
1.0

dist f8 [1, 5]
00000000: f6a1 2784 cda4 c6bf 1cb7 8a47 e8b1 d03f
00000010: ec72 8a21 758f 533f 0ff6 494a c019 61bf
00000020: 9675 02df 27d2 efbf
-0.17690438225623922 0.2608586023951476 0.0011938709123235315 -0.0020874744098466967 -0.9944037776619321

rvecs f8 [9, 3, 1]
00000000: d77e b5a9 db6a cfbf 4c67 a435 aae8 db3f
00000010: 1379 6f48 e988 0840 6013 9e3d ff33 b43f
00000020: 57fb 2dd1 9f3c dabf 4faf b328 8d3f 0840
00000030: cc48 a186 2c72 cf3f cf57 4b31 0ed5 bd3f
00000040: 0d8d f258 76fa 04c0 738b 718e 260f c73f
00000050: f8b1 82aa 1ef9 ccbf 0df1 c952 fbd7 08c0
00000060: c15a 69c4 8252 94bf ae90 13eb 1e21 d63f
00000070: 58fd 8f50 38d9 0640 893e f541 4813 d63f
00000080: 63b3 1f01 b5c9 ddbf 81a5 3654 352a 08c0
00000090: aaed 62cb ce8a cabf c592 7634 8dd3 ae3f
000000a0: 89f2 e07e 95e8 0840 9830 ac9b 257c c63f
000000b0: c37d cd01 ba0b d93f f748 1c1a e7e2 08c0
000000c0: dca0 0e26 7264 cd3f f317 0894 f809 98bf
000000d0: c269 83cc 7ea9 08c0
-0.2454485491425575 0.4360757373666402 3.066851201917538 0.07891841177304348 -0.40995021274277604 3.0310309581599664 0.24567181180697728 0.11653221801256496
-2.622296042348927 0.18014985995531738 -0.22635253263196353 -3.105459830081719 -0.01984600375939283 0.3457715316456057 2.856064443010535 0.34492689553460615
-0.46543622121571654 -3.0206095294167317 -0.20736107760408845 0.06020776048106805 3.1135663902662754 0.17566366292192437 0.3913407342533583 -3.1107923545724776
0.22962786539324653 -0.023475536379940775 -3.082761380920801

tvecs f8 [9, 3, 1]
00000000: 1dd6 c56f 9ee0 c23f c62b d475 f41a b33f
00000010: c455 fec7 f8c5 e03f 0d0a d53d 9437 c23f
00000020: 53d2 f786 3186 b73f 1fdb b415 bfb8 e43f
00000030: d82a 7c7a 0c0b b33f c703 6be6 65b0 c03f
00000040: 2333 2412 b8e3 e73f 8ad7 1f4d b599 c53f
00000050: 123b b87c 976b b33f 182b 4d21 3776 e43f
00000060: ee93 4e9d 763a ce3f b763 8d72 b7fd 963f
00000070: a5ef 00fa 76ca e43f 71df 86a5 3add be3f
00000080: d4bd 66c2 beca a73f c25b 6f9e 0472 e53f
00000090: 00ea ab9f f573 c03f 1812 f4f3 9767 ba3f
000000a0: 294b f699 2fc0 e43f 0256 1bf3 27aa bc3f
000000b0: a8de d55b 3821 ae3f 80c6 d46f a1d4 e63f
000000c0: 1817 b8ef b404 b53f 5bc7 6883 9dba b93f
000000d0: 5d54 4c15 e4f0 e93f
0.1474798246160142 0.0746300494831039 0.5241664796946499 0.1423211385645832 0.09189137978666766 0.6475520538286651 0.07438734045369289 0.13038324118499942
0.7465477327656099 0.16875330224837298 0.07586046976960528 0.6394305849474646 0.23615915947917138 0.022452226988523196 0.6497149355777664 0.12056318799193179
0.04646869776786003 0.6701682180818056 0.12853880211316948 0.10314321237462598 0.6484601981231651 0.11197137532447957 0.05884719964063595 0.713455885334227
0.08210306980626247 0.10050377329096476 0.810655633542989

rvec_for_pose f8 [3, 1]
00000000: d77e b5a9 db6a cfbf 4c67 a435 aae8 db3f
00000010: 1379 6f48 e988 0840
-0.2454485491425575 0.4360757373666402 3.066851201917538

tvec_for_pose f8 [3, 1]
00000000: 1dd6 c56f 9ee0 c23f c62b d475 f41a b33f
00000010: c455 fec7 f8c5 e03f
0.1474798246160142 0.0746300494831039 0.5241664796946499

first_corner_coords f4 [2]
00000000: af4f fa43 c972 c243
500.62253 388.89676
